examples/pytorch/CaptumExample/models/titanic_model.pt (torch_old, 2240 bytes, 6 tensors)

linear1.weight f4 [12, 12]
000000 5c 4c 8f 3f f1 c7 ce 3f da 9b df bf 55 56 c6 bc
       1.1195178 1.6154767 -1.7469437 -0.024211088
000010 d3 56 84 bf e9 cb 98 be 0a 80 d0 c0 0e fb be 3e
       -1.0338997 -0.2984307 -6.51563 0.37300915
000020 3e 7c 97 3f 74 1b 44 c0 30 df c7 c0 ef 84 be 40
       1.1834791 -3.0641756 -6.2459946 5.9537272
000030 6f a3 33 3e 0d f2 41 40 6b be a7 40 6c b0 e8 be
       0.17542814 3.0303986 5.2419944 -0.454471
000040 85 91 71 c0 45 d2 be 3f 97 a3 f0 c0 fa ba ee 3f
       -3.7745068 1.4907919 -7.5199695 1.8650811
000050 03 a5 3f bf e6 13 87 c0 67 51 b7 bf 57 fb b0 be
       -0.7486116 -4.221179 -1.4321717 -0.34566757
000060 c5 a0 10 3f 78 56 27 3f 36 11 13 3f 2d 84 44 3f
       0.56495315 0.65366316 0.57448137 0.76764184
000070 23 da 8f bf 7d 9f 60 3f de ed 27 3f 87 06 00 3e
       -1.1238445 0.8774336 0.6559733 0.1250249
000080 8b db 5b 3f 6a 41 10 3f 5a 7b a1 3e 2e 04 00 3f
       0.8588187 0.56349814 0.31539422 0.5000638
000090 80 81 16 3f 12 ed 39 bf 64 ca a3 3d bc a9 20 3f
       0.5879135 -0.72627366 0.07997587 0.62758994
0000a0 7b d9 92 3f 67 0f 1e bf 5e 25 bd 3f 4b 3c 43 bf
       1.147262 -0.6174225 1.4777029 -0.76263875
0000b0 83 9d a6 be ce 84 7d 3f 34 29 43 3f c6 39 9d be
       -0.32542047 0.9903077 0.76234746 -0.3070814
0000c0 e8 9d 7f 3e 70 1c 54 40 ec a7 16 c0 ea 35 7a bf
       0.2496258 3.3142357 -2.3539991 -0.97738516
0000d0 d4 c3 7e c0 e1 85 88 40 de 2b f6 bf 05 26 24 bf
       -3.9807024 4.2663426 -1.9232137 -0.64120513
0000e0 cf 9d cf 3f b7 a6 19 c0 46 d1 2f 3f ab a6 66 3e
       1.6220034 -2.4008005 0.686787 0.22524516
0000f0 71 87 a7 be de 5d e0 bd fc 8f 04 41 1a 8d 07 3e
       -0.3272052 -0.10955404 8.285152 0.1323742
000100 16 51 92 40 8b 11 db bf 62 8d 9d 40 8e 51 19 40
       4.572398 -1.7114729 4.9235086 2.3956027
000110 1e 68 3a 3e d7 03 fc 40 77 29 28 bf d4 db 61 3e
       0.1820378 7.8754687 -0.6568827 0.22056514
000120 0a 5c 8e 3f 41 a9 11 c0 97 0b 5b 40 15 ea bd bf
       1.1121838 -2.2759554 3.4225824 -1.4837061
000130 9b 86 97 40 41 bb e8 be c4 f4 32 40 f2 2e 58 40
       4.7351813 -0.45455363 2.7961893 3.3778653
000140 b2 f4 8b bf 8e 13 3a 40 04 22 2d 3f 2e 5d 54 bf
       -1.093405 2.9074435 0.6763003 -0.8295468
000150 16 7a 3f bf d0 87 c7 3e 7a e3 97 bf a0 ae 87 bf
       -0.74795663 0.38970804 -1.1866295 -1.0600166
000160 9d e8 93 bf 13 8f aa be 9a d9 d0 bf fc 7c 6a 3f
       -1.1555363 -0.33312282 -1.6316407 0.9159696
000170 d6 ac a0 bf bc 1e 1b bf 05 66 d9 bf 31 d1 db be
       -1.2552745 -0.6059377 -1.6984259 -0.42933038
000180 42 63 01 40 fc 46 de 3f 6e a7 9c c0 f2 f6 1e be
       2.0216832 1.7365413 -4.895438 -0.1552389
000190 36 3f a7 be ee 3f 7f bf cf 0c 9e c0 a9 a2 90 be
       -0.32665414 -0.99706924 -4.9390635 -0.282491
0001a0 6c a1 81 bd 8f c0 06 c0 9c 30 f1 c0 75 f5 b0 40
       -0.06329617 -2.1055028 -7.537184 5.529963
0001b0 07 31 53 bf 05 d5 a8 3e a1 98 8e bf 4d 85 91 bf
       -0.82496685 0.3297502 -1.1140329 -1.1368805
0001c0 12 f1 1b bf 84 59 85 bf 58 99 de bf ea 23 ab 3f
       -0.6091472 -1.0417943 -1.7390547 1.3370335
0001d0 3a 9b 74 bf ed 66 21 bf ed e2 d7 bf c8 73 92 bf
       -0.95549357 -0.6304768 -1.6866127 -1.1441584
0001e0 21 ff 13 3c 97 93 ea bd 89 d7 83 bb f4 2f 32 3c
       0.009032995 -0.11453932 -0.0040234965 0.010875691
0001f0 bc 40 80 c0 84 1f de 40 d9 f2 c2 bf 20 37 e0 3f
       -4.007902 6.941347 -1.5230361 1.7516823
000200 4b 93 dd 3f 3f 44 07 c0 77 02 9a bf 52 e1 8f 40
       1.7310575 -2.1135404 -1.2032002 4.496255
000210 e7 e2 d4 3e 98 65 68 3e 8f a5 87 3f 91 4d 9c 3f
       0.41579363 0.22695005 1.05974 1.2211171
000220 24 28 47 3f 63 f1 82 3f 53 8b 13 3f 02 6a 83 3d
       0.77795625 1.0229915 0.57634467 0.06416704
000230 9c 19 32 3e 91 2b f4 bd 86 91 d6 bc c0 09 7e 3f
       0.17392582 -0.11922372 -0.026192438 0.9923363

linear1.bias f4 [12]
000000 cc 25 d3 bf 0f ae fa bf 13 c4 40 3f aa be a3 3f
       -1.649591 -1.9584368 0.75299186 1.2792561
000010 86 a9 4f be 33 cc 19 40 f5 39 7a 3f 5d 93 a3 bf
       -0.20279512 2.4030883 0.97744685 -1.2779347
000020 1e b6 ca bf c4 b9 d1 bf b1 61 00 bd e3 c3 55 3f
       -1.5836828 -1.6384816 -0.031343166 0.83502024

linear2.weight f4 [8, 12]
000000 1f a0 e2 3e f8 43 96 40 19 fc 23 bf d8 d3 6c bf
       0.44262788 4.695797 -0.64056545 -0.9251075
000010 ec 23 30 40 f7 8d f8 bf 8e e7 42 c0 18 36 63 bf
       2.7521925 -1.9418324 -3.045383 -0.88754416
000020 80 dc 3f 40 ea 05 87 bf 5f c1 4c 40 53 f6 6d bf
       2.9978333 -1.054868 3.1993024 -0.92953986
000030 a2 30 1d 3f 0c aa f0 3f 73 52 b3 bf 4e c0 a3 be
       0.6140233 1.8801894 -1.4009537 -0.31982654
000040 03 b6 1d 40 94 84 07 c0 2d 90 d3 bf 7f 36 02 3d
       2.464234 -2.117467 -1.6528374 0.031790253
000050 27 37 d6 3f 32 c5 8c be c5 d0 31 40 dd 80 c4 be
       1.6735581 -0.27494198 2.7783673 -0.38379565
000060 ba 8f 3e bf 6e 79 22 c0 5b d4 39 3f 98 7f 9e 3d
       -0.7443806 -2.5386615 0.72589654 0.0773918
000070 e8 f2 e8 bf e2 de 34 40 e0 38 88 3f a6 9f 5e bf
       -1.8199129 2.8261037 1.0642357 -0.86962354
000080 97 2b 9a bf 0d 58 4c bf 71 b0 bc bf ae 54 05 3e
       -1.2044553 -0.79821855 -1.4741346 0.13020584
000090 83 76 0f 3f b8 b4 24 40 3d 10 36 bf 7e 84 19 bf
       0.5604021 2.5735302 -0.7111853 -0.5996779
0000a0 0f 6a 1a 40 7c be f3 bf 12 e4 02 c0 44 8e c9 be
       2.4127233 -1.9042506 -2.0451703 -0.39366353
0000b0 a8 0f d4 3f 51 ad f6 be 93 a5 43 40 d9 b7 25 bf
       1.6567278 -0.48179105 3.0569808 -0.64733654
0000c0 c0 08 20 3f aa 08 39 40 16 d0 3d bf 50 05 2c bf
       0.6251335 2.8911538 -0.7414564 -0.67195606
0000d0 aa 98 0c 40 c5 91 02 c0 dc f6 14 c0 17 54 e6 bc
       2.1968179 -2.040147 -2.327567 -0.028116269
0000e0 03 be d9 3f 10 f7 6f bd e8 80 41 40 a0 27 ed be
       1.7011112 -0.058585227 3.0234928 -0.46319294
0000f0 5b ae 1c bf 24 2b 10 c0 dc 46 72 3f 12 9d a2 3e
       -0.61203545 -2.252633 0.9463937 0.3176046
000100 8e 5b 28 c0 38 c5 16 40 72 bf e2 3f 82 a1 cc be
       -2.630588 2.3557873 1.7714674 -0.3996697
000110 80 57 a6 bf 10 7c c6 be 1e 3b 31 c0 96 c5 c2 3e
       -1.2995453 -0.38766527 -2.7692332 0.3804137
000120 cd e4 6f 3f e2 46 24 40 da 38 5e bf ce 85 02 bf
       0.937085 2.5668263 -0.868055 -0.5098542
000130 7f 56 19 40 10 3a 07 c0 ba 80 06 c0 f8 54 c5 3b
       2.3959043 -2.1129189 -2.1016068 0.006022092
000140 e9 39 b2 3f 35 68 0d 3d 27 57 3b 40 56 ec 22 bf
       1.3923923 0.034523208 2.9271944 -0.6364187
000150 13 dd 56 bf 7f 42 a1 be d0 13 b4 bf 33 77 8f bf
       -0.8393108 -0.31496045 -1.4068546 -1.1208252
000160 25 ba a5 3f 88 76 a9 bf fb f3 ad bf e8 17 a1 bf
       1.2947432 -1.3239298 -1.3590082 -1.2585421
000170 43 2d 28 bf 65 1a 53 bf ae 87 09 40 87 1e a8 bf
       -0.65694064 -0.8246215 2.1489062 -1.3134316

linear2.bias f4 [8]
000000 9f 31 5a bf e0 a4 f6 be 79 65 8d 3e e0 4d 2e bf
       -0.85231966 -0.48172665 0.2761648 -0.6808758
000010 6e 3e 09 bf 1c 6e b2 3e 85 ab d9 be cd 35 a0 bf
       -0.53610885 0.34849632 -0.42513672 -1.2516419

linear3.weight f4 [2, 8]
000000 48 2f d9 3f ac aa 9f 3f 66 9e e7 bf c9 86 01 40
       1.6967554 1.247396 -1.8095214 2.0238516
000010 83 e8 c0 3f b8 b0 1d c0 a9 00 00 40 af 52 9c bd
       1.5070957 -2.463911 2.0000403 -0.07632958
000020 4e 3f 86 bf 8a 33 95 bf 76 c2 da 3f fb fe c8 bf
       -1.0488069 -1.1656353 1.7090595 -1.5702814
000030 da f1 aa bf 71 6d 21 40 56 07 fa bf 12 7c ac be
       -1.3355057 2.5223048 -1.9533489 -0.33688408

linear3.bias f4 [2]
000000 d2 35 89 bf 9d 45 40 3f
       -1.071955 0.7510622
